HospitalInformationSystem.API/PyCovid/model2.pth (torch, 15678 bytes, 6 tensors)

fc1.weight f4 [64, 18]
00000000: e6a6 423e c7d4 49bd 41c6 76bd dc7a 443e
00000010: 7f0d 15be 44b8 853e d20e 6e3d 3589 713d
00000020: b090 423e da02 3dbd c5f5 bd3d 2f2e a43d
00000030: 0af6 1c3e 6eee 723c e3e7 393e e735 b63d
00000040: 4b2f 0cbd af8d 893e 8c72 823e ea06 0ebe
00000050: ceb7 f7bd d0f1 973d 84a8 1b3e 5e34 cabd
00000060: 9c00 cf3d 5cb6 883d 09d8 41be 1fb7 d3bd
00000070: ae57 c9bd f2e0 a0bd 6861 03bd a755 8fbc
00000080: 92e4 11be 58c9 603e 5be7 d7bd b838 7a3e
00000090: 8b4d 3a3e 60c0 64bd d5bd 8d3c aa8e 2cbe
000000a0: cd94 1fbe 9baa 36be 5541 14be 8cbc 18be
000000b0: 94a7 083e 52e5 ba3d 68c6 3dbe 8784 cc3d
000000c0: 1785 4a3e 7c2b 61be 53da 253e 9b61 093d
000000d0: 5dbb 013e 1f5a 69bd 21e3 b83d ad46 71be
000000e0: 072b 41be 32a5 a33c e1ad 573d b10b de3c
000000f0: 267f 5dbe e38e f23d aced 323e 7091 5a3d
00000100: eb9e 4d3e d7dd 69bc 2a9c 4f3e 1b97 20be
00000110: f250 d83d 802c 643e ffa3 c33d 58b3 343d
00000120: b8ef 5dbc 056c c4bd ac21 e4bd 521a 11be
00000130: 0d01 023e 0f2a 9c3d bae9 17be d743 4a3e
00000140: be69 39be aff1 5a3d 5616 393e f7fc 51be
00000150: 72b2 fd3d 0739 1e3e 3092 2fbe 7c54 57be
00000160: b2f5 623e eed1 4f3c 794e 863e 6ee2 7f3e
00000170: 7508 11be c960 853d 8996 213d 40d9 f93b
00000180: 3801 aa3d 71da 2ebe 5456 94bd e045 223e
00000190: d5dd 653e bb71 1ebe 8661 ad3d 6cbb 30be
000001a0: 3c7d 823e e0f3 fa3d a4ab 143d c2f6 3a3d
000001b0: 84ee 78bc e252 c83c b745 8fbd 1b9a 28be
000001c0: ebef 343e 7dfe 7a3e 1402 853e a887 893e
000001d0: 6bed 00be 62ca 333e 6c45 063e a6ec 393e
000001e0: b8d3 743e c67c 323e 2136 ca3d 36d2 81bd
000001f0: 05a2 21be 9db0 ffbd 9d05 883c 72ed 07bd
00000200: d8cf 573e 0c37 78bc d300 b83d f732 1dbe
00000210: b124 75be 0463 77be a7fa a03d 60e0 22be
00000220: ce35 573d f422 7dbe 77ef bfbd b57e 79bd
00000230: f880 353d 9e9b 083e f095 433e ab96 c43d
00000240: 2b1e 10be 7d70 683e e770 d9bd ed40 81bd
00000250: a210 a63d b142 d7bd da68 5e3e f4fa 693d
00000260: 4382 ca3c aa15 1cbd c6e9 1abe 2093 5bbe
00000270: 2b35 44be 839a 28be b648 4f3e 314a 0fbe
00000280: 8a10 213d a738 99bd 07b7 64be 11fa 24be
00000290: 7e00 793d 06ca 25be a22a 513e e519 b53d
000002a0: 9790 79be 2af8 e63d 86ab a93c e940 403d
000002b0: 11dd 6abe cb29 24be ae7b 04be 516f f1bd
000002c0: 9477 0d3e 8784 b6bc bfb0 49be 090a 43bd
000002d0: 0127 413e 0fb2 e3bc 4f13 343e d2a3 3abd
000002e0: e8e6 12bd 1c36 513d 7e88 7bbd 6b8a e53d
000002f0: eab2 203e d438 c23d d2eb 0e3d 23d1 513d
00000300: 8feb ab3d 6cf6 9f3e bc87 8e3d b7d3 813e
00000310: 2d37 023e 6fc9 efbd 6014 30be 0fc4 f03d
00000320: 56ad 1abe c7c8 4cbe 3507 01be b6fa 2d3e
00000330: 1e42 2d3e 6c3b cebd a776 403e 9ce7 27be
00000340: 4894 0d3e a663 1d3e 76ef d3bd f20e fabb
00000350: 1df0 4a3e 46b7 373e dcf1 6fbd 2f0f 83be
00000360: 81ee 69bd 69a1 113e 949e 553e d929 0cbd
00000370: 5de6 0cbe c9ba 783e d9f8 e63d 022b b9bd
00000380: 2227 dcbd babd 6b3d ef7e 14be 79f2 f43d
00000390: 2526 8c3e 6daa a138 b488 563e 803a 113e
000003a0: bd91 29be 7f51 4c3e 2334 973d 70e2 d1bd
000003b0: beb7 373e 1c76 ec3d 7c47 a53d de30 afbc
000003c0: 2a86 833d 44fa 683e d381 17be d493 b0bd
000003d0: 170b 8fbb 6c88 723e 6fd4 b53d a1d0 0a3e
000003e0: 2471 febd 21f2 013e 5509 093e 489e ca3d
000003f0: 13ac 43bd a024 4c3e fae7 1f3e d690 1ebe
0.19008979 -0.049275186 -0.060247663 0.19187492 -0.1455593 0.26117146 0.058119603 0.05896874
0.19000506 -0.046145298 0.092753924 0.08016621 0.15328231 0.014827354 0.18154864 0.08897
-0.03422479 0.26865909 0.25478017 -0.13869825 -0.12095605 0.07419169 0.15201002 -0.098732695
0.10107538 0.06675407 -0.18930067 -0.10337662 -0.09831177 -0.07855405 -0.032075316 -0.017496897
-0.14247349 0.21951807 -0.105421744 0.24435699 0.18193643 -0.055847526 0.017302433 -0.16851297
-0.15584107 -0.17838518 -0.14478047 -0.14915675 0.13345176 0.09125771 -0.18532717 0.09986215
0.19777332 -0.21989244 0.16196565 0.03354035 0.1266913 -0.05697071 0.090276964 -0.23562117
-0.1886407 0.019976232 0.05265606 0.027105184 -0.21630535 0.1184366 0.17473477 0.053361356
0.20080154 -0.014274082 0.20274416 -0.15682642 0.10562314 0.222826 0.09552764 0.044116348
-0.013545923 -0.095909156 -0.11139235 -0.14170197 0.12695713 0.076252095 -0.14835253 0.19752441
-0.18106744 0.053453144 0.18074927 -0.20506655 0.12387551 0.15451442 -0.1714561 -0.21028322
0.22164038 0.0126843285 0.26231745 0.2498872 -0.14163382 0.06512601 0.039450202 0.007624775
0.08301014 -0.17075516 -0.07243028 0.15846968 0.22447903 -0.15473072 0.08465867 -0.17258996
0.2548617 0.12253547 0.0362965 0.045645483 -0.015193585 0.024453584 -0.06995719 -0.16465037
0.17669646 0.24511142 0.25978148 0.2686131 -0.12590568 0.17557672 0.1311242 0.1815668
0.2390889 0.1743041 0.098736055 -0.06338923 -0.15784462 -0.12484858 0.01660424 -0.03318543
0.2107538 -0.015149843 0.08984532 -0.15351473 -0.23939778 -0.24158865 0.07860308 -0.15905905
0.052541547 -0.24720365 -0.09371846 -0.060911853 0.044312447 0.13340613 0.19100165 0.0959905
-0.14074008 0.22699161 -0.106172375 -0.06311212 0.08108641 -0.10510767 0.21719685 0.057124093
0.024720317 -0.038106598 -0.1512824 -0.21442842 -0.19160907 -0.16465192 0.20242581 -0.13993146
0.039322414 -0.07481509 -0.22335444 -0.16111018 0.060791485 -0.16190347 0.2042642 0.088428296
-0.24371563 0.11277802 0.020711672 0.046936903 -0.22935893 -0.16031568 -0.12937805 -0.1178881
0.13815147 -0.02227999 -0.1969633 -0.047616992 0.18862535 -0.027794866 0.1758549 -0.045566387
-0.03586474 0.051076993 -0.061409466 0.11208042 0.1569325 0.09483495 0.034892865 0.05122484
0.083945386 0.31242692 0.06959483 0.25356838 0.1271636 -0.11708342 -0.17195272 0.11756145
-0.15105185 -0.19998465 -0.12600406 0.1699017 0.16919753 -0.100699276 0.18795262 -0.16396946
0.13826096 0.15370044 -0.10348408 -0.007631176 0.19818158 0.17941007 -0.058580264 -0.25597522
-0.05711222 0.1422173 0.20861274 -0.034219597 -0.13759752 0.24290003 0.11277933 -0.09041406
-0.107496515 0.057553984 -0.14501546 0.119603105 0.27372852 7.7088225e-05 0.20950586 0.14182472
-0.16559501 0.19952963 0.07382991 -0.10248268 0.17941186 0.11545965 0.08070275 -0.021385606
0.06422074 0.22751719 -0.14795618 -0.08621946 -0.0043653357 0.23684853 0.08878409 0.13556148
-0.124239236 0.12690021 0.13382466 0.09893471 -0.047771525 0.19935846 0.15615836 -0.15484938

fc1.bias f4 [64]
00000000: 0bb6 21be 8177 343d 53b2 ae3c cd76 73be
00000010: 9250 26bd 12c5 b3bc edd8 1bbe d2e0 f0ba
00000020: 219b bdbd bc58 1cbd 94f9 00be 8c3e 1bbe
00000030: 9f15 06be 8f0a 26be ae94 c73c aef0 7e3e
00000040: 88ec 17be a14a d73d a9da d9bb ac28 3ebe
00000050: 55cd 683e a16f 13be 206d 52be 3466 fabd
00000060: 6dde 17be 81f6 f0bc 30b7 cf3d 054a 433e
00000070: 98ad 0abe 7ff3 99bc 8b1a 3ebe 9f2c 653e
00000080: 3d27 3abe 0a3b 07bc 0865 443e 3500 32be
00000090: d630 bdbd 4f97 6cbe 204e 2cbb b158 8c3e
000000a0: c12b cb3d 0fbc 9ebd 7084 363e f6bd 3abd
000000b0: 10a4 8e3d ad36 7e3e ad3b 2bbe ded8 80bd
000000c0: 4d6e 38bd 7416 13be 33aa debd f94e 28be
000000d0: 12e0 d1bd aff2 483e 025f 1d3e 64ea 9dbd
000000e0: 055f 863d 23d6 31be 18f8 ec3d fa1f 2dbd
000000f0: fc4b 16be bf2d 263e 997f 0cbe 0981 1bbe
-0.157921 0.04405928 0.021325266 -0.23775788 -0.04060418 -0.021944556 -0.1521947 -0.0018377549
-0.09258104 -0.03817056 -0.12595206 -0.15160578 -0.13094185 -0.16214965 0.024362888 0.248965
-0.14836323 0.10512281 -0.006648381 -0.18570203 0.22734578 -0.14398052 -0.2054944 -0.12226525
-0.14830942 -0.029414417 0.10142362 0.19071205 -0.13542783 -0.018792866 -0.18564813 0.22380303
-0.1817903 -0.008253822 0.19179165 -0.17382891 -0.0923783 -0.23104595 -0.0026291683 0.27411416
0.09920455 -0.07750713 0.17823958 -0.045591317 0.06964886 0.24825545 -0.16721983 -0.06291364
-0.045027066 -0.14364034 -0.10872307 -0.16436376 -0.10247816 0.19623826 0.15368274 -0.07710722
0.06561092 -0.17366843 0.11570758 -0.042266823 -0.14677423 0.16228388 -0.1372055 -0.15185942

fc2.weight f4 [32, 64]
00000000: 363a 293e 0358 eabb 5407 7dbd a80e aa3d
00000010: 18ea 78bd 5ae7 853d d697 5f3d d6d7 823d
00000020: 4621 863d 2e4e 40bd e37f 293e 882c 7fbc
00000030: 7bbe ba3d a8a5 4bbd 313e 813c afbf 213e
00000040: c76e 38bd 8163 f83d c378 c3bc 8501 b4bd
00000050: cad7 45bd 6aac 99bd 7773 733d 76dc a2bd
00000060: f02c a03c cc50 273c f2d5 a83c 6eb9 623d
00000070: a722 dc3b fd2f 5d3c f0cc a5bc 9886 a73c
00000080: 42a9 073e 9293 183e c1cd 833d 3845 0c3e
00000090: 4455 2cbd c722 a8bd e015 513d e142 8b3c
000000a0: 9394 2c3e b17f dcbd 09a9 713d 7b9d 3b3d
000000b0: cc34 a03d bc65 093d 33cd 49bd 3815 51bd
000000c0: 0302 333d 728a cfbd 06c0 893d 2133 283c
000000d0: 67c8 c1bd 11a0 e33d b891 94bd 3f95 bbbd
000000e0: 173b cf3d 4d92 ff3b d241 883d a3a4 203e
000000f0: bb64 d23d 405f d1bb ebb5 08bd 67f9 043e
00000100: c4ae f0bd 9843 463d b839 bc3c 3ccc a6bd
00000110: b8f5 833c 34c2 cb3d f04e 94bd 00df 493a
00000120: 84ec fb3d 706b e33c bc40 21bd 223a 9ebd
00000130: 2062 c5bc 2089 093d 58ff cbbd 7cef 26bd
00000140: 788f d83d 6815 843c 24e7 a33d ecca ae3d
00000150: b891 74bd 9817 b13c b46f e3bd 08b4 093d
00000160: 98ea c2bd 6a56 813d 7285 ab3d d01d 91bd
00000170: 8084 e23a d427 91bd a2d2 b23d 3066 6fbc
00000180: c6ea 9ebd 06fc cf3d bc52 efbd dc20 e93d
00000190: 904f 743c 840c fb3d 1e9a acbd b03b 3cbd
000001a0: 3461 3c3d 8854 c6bc b6e5 febd 7429 743d
000001b0: 0e71 e5bd 189a 2d3d 340c b13d 1892 6e3d
000001c0: 682b 1b3d f00c f83d c07e 5b3d 08a4 ae3c
000001d0: dcae f1bd 1a15 b23d 7632 b5bd b281 9dbd
000001e0: 5eea fcbd 20b0 f8bc 8ed0 e0bd 2a3c d3bd
000001f0: 7ce5 5a3d c485 c63d f8fc d3bc b0fd 223d
00000200: b205 8abd 7ab1 023d 888e b7bc 5947 97bd
00000210: e955 d3bc f54b 863d 772f d03c 4c5d b33d
00000220: d9a2 0d3e f3ff dabc 4f6f 1dbd 82ff da3d
00000230: 40a7 103e 0cd9 05bd a48b 74bd 34d7 04bd
00000240: e23d c0bd 604b 873d 8228 babc 81a9 8c3d
00000250: dde4 a83a 0043 eabd 3131 0c3e 931a 6f3d
00000260: b38d 31bd e1ec 0cbd 79bb 0d3e 8170 ed3c
00000270: 0c2e d13d b3e8 ccbc f00f 53bc 84e9 49bd
00000280: 9d97 d0bd cea9 b8bd 78b8 613d 881e b63c
00000290: c5a7 58bb dab5 97bd 2e4a cdbd d979 063e
000002a0: 89a4 993d 2e79 f33d fdac 5a3d 7204 32bd
000002b0: a520 0e3e e3cd 7b3c e53a 043e f444 573d
000002c0: c6a6 99bd 412c d83d 474b ff3d 0981 753d
000002d0: 928e fc3d 2c31 08bd ac14 db3d b0e7 8cbb
000002e0: a803 503d 8908 b3bc ca77 b23d 2315 033d
000002f0: 49ad 8cbd e0a0 7cbc cfeb 6bbd 944e c7bd
00000300: 9429 4b3d c0a9 653d 2a98 f73d c011 4cbb
00000310: 1812 2fbd 40cd 63bb 10cc 703c 7e97 cc3d
00000320: 0056 61bb 4cee ba3d aef1 cabd 1c6d 46bd
00000330: 2615 82bd 0021 dcbc 0a11 b9bd 609d c7bb
00000340: 50ab 4ebd e0a9 753d 1072 4a3c 90d4 f13c
00000350: f8ba 923d 16d2 ffbd 1832 9cbd 08e4 a9bd
00000360: 1802 f8bc f204 ea3d 2065 913b 44f7 4b3d
00000370: cc1a a9bd e262 eebd c254 d53d aa27 d9bd
00000380: 1cc7 cbbd a879 99bd 302b f03d 3841 9fbc
00000390: 4c00 69bd 80ff e5bb 54e1 e73d 9894 97bd
000003a0: 0470 433d 6057 863d 0cdb debd 0071 b33c
000003b0: 584f 333d f038 c4bd d0f5 c0bc 1cf6 3c3d
000003c0: c2dd 97bd 503c 333d 0040 cbbd c810 f7bc
000003d0: 1815 38bd 743d 38bd 8aa2 a6bd f892 9bbc
000003e0: d0a3 593d a822 953c f0bc bbbd c8fa f53c
000003f0: 6063 cabc 88c2 28bd 2832 38bd 5885 ff3d
0.16526112 -0.007151605 -0.061774567 0.08303577 -0.060770124 0.065382674 0.05458816 0.06388824
0.06549315 -0.046949558 0.16552691 -0.015574582 0.091183625 -0.04971853 0.015776725 0.15795778
-0.04502752 0.12128354 -0.023861295 -0.08789352 -0.048301496 -0.075035885 0.059436288 -0.07952206
0.019552678 0.010212135 0.02060983 0.05535262 0.006717998 0.013500211 -0.020239323 0.020449921
0.1324816 0.14900044 0.06435729 0.1369828 -0.042073503 -0.08209758 0.051046252 0.016999664
0.16853552 -0.10766543 0.058999095 0.045804482 0.0782257 0.033544287 -0.04926796 -0.051045626
0.04370309 -0.10133828 0.06726079 0.010266096 -0.09462052 0.111145146 -0.07254356 -0.09159326
0.10118692 0.007799423 0.06653179 0.15687804 0.10273119 -0.0063895285 -0.033376615 0.12985764
-0.11752084 0.048404306 0.022976741 -0.08144423 0.016108379 0.09949151 -0.07241619 0.0007700771
0.12300971 0.027761191 -0.039368376 -0.07725932 -0.024094641 0.03357804 -0.09960812 -0.040755734
0.105742395 0.016123489 0.08003071 0.08534798 -0.05970928 0.021617696 -0.1110529 0.033618957
-0.095174015 0.0631531 0.08375062 -0.070857644 0.001728192 -0.07087675 0.08731581 -0.014611766
-0.07759623 0.101554915 -0.11685702 0.113832206 0.014911547 0.122582465 -0.08427833 -0.04595536
0.045991138 -0.02421023 -0.12446158 0.059609845 -0.11203204 0.042383283 0.08644906 0.058244795
0.037883192 0.12111843 0.053587675 0.02131845 -0.1180093 0.08695431 -0.08847515 -0.07690753
-0.123493895 -0.03035742 -0.10977279 -0.1031421 0.05344151 0.096934825 -0.02587746 0.039792717
-0.067393675 0.031907536 -0.022406831 -0.07386655 -0.025797801 0.065574564 0.025413258 0.08758029
0.13831653 -0.026733374 -0.03843623 0.106932655 0.14126301 -0.032677695 -0.059703484 -0.032431796
-0.09386803 0.066061735 -0.022724394 0.06868268 0.0012885589 -0.114385605 0.1369064 0.058374953
-0.043348026 -0.034405593 0.13841046 0.02898431 0.10213861 -0.025013303 -0.012882218 -0.049294963
-0.10185168 -0.09016763 0.055107564 0.022231355 -0.0033058983 -0.07407732 -0.10023914 0.13132419
0.07502086 0.118883476 0.05338763 -0.04346127 0.1387964 0.015368911 0.12913091 0.052555993
-0.07502513 0.10555316 0.1246553 0.05993751 0.12331881 -0.03325002 0.10697302 -0.0043000802
0.050784737 -0.021854656 0.08714254 0.03200258 -0.06868989 -0.015419215 -0.05759793 -0.097317845
0.0496002 0.05607009 0.1208957 -0.003113851 -0.042741865 -0.003475979 0.01469709 0.09989832
-0.0034383535 0.09127483 -0.09909378 -0.0484439 -0.0635169 -0.026871204 -0.09036453 -0.0060917586
-0.050456345 0.05997646 0.012356296 0.029520303 0.07164568 -0.124912426 -0.07626742 -0.08295447
-0.030274436 0.114267245 0.004437104 0.049796358 -0.08257064 -0.11639954 0.10416557 -0.106032684
-0.099500865 -0.07493907 0.11726987 -0.019440278 -0.05688505 -0.0070189834 0.11322275 -0.07401389
0.04771425 0.06559634 -0.108816236 0.021904469 0.04377684 -0.095811725 -0.023554713 0.046133146
-0.07415344 0.04375869 -0.099243164 -0.03015937 -0.04494199 -0.04498048 -0.081364706 -0.018990979
0.05313474 0.018205002 -0.09166896 0.030026808 -0.024705589 -0.041201144 -0.044969708 0.12476605

fc2.bias f4 [32]
00000000: b9d8 a5b9 529b 9d3d ceab 453d 7212 dd3d
00000010: 1ced 9c3d f511 c3bb 9375 52bd 5dd4 c23d
00000020: 142d 213d 2876 353d 9121 88bc e1b7 e83d
00000030: 91bc 083e 8061 d83a e4e8 b7bd 8192 713d
00000040: f76f a23d 1b08 ce3d 95cd 643d b429 c2bd
00000050: e9ad b7bd e8d7 953e 9896 99bd 892e 0a3e
00000060: da07 debc 85c1 87bd 493f e33c 99d4 b3bb
00000070: dc84 b53d 35a6 e63d 65b6 1d3d e2ad 87bd
-0.00031632723 0.076956406 0.04825955 0.10794534 0.076624125 -0.0059530684 -0.05138166 0.09513161
0.03934963 0.044302136 -0.016617568 0.11363197 0.13353182 0.001650855 -0.08979967 0.058977608
0.07931512 0.1006014 0.05586012 -0.094806105 -0.089687176 0.29266286 -0.074994266 0.13494314
-0.027103353 -0.06628708 0.027740138 -0.00548799 0.088632315 0.1126217 0.038504023 -0.066249624

fc3.weight f4 [2, 32]
00000000: b8c5 e5bd cff6 a7bd 648d b13d cdb0 97bc
00000010: 53c7 32be 5a99 5cbe 960b f23c c8c9 1c3e
00000020: f2f5 b9bb d445 80bd 6634 c0bd cc2c 42be
00000030: da16 32bd 9432 7d3d ec73 16be 20ab 913d
00000040: 12a3 933d 8784 9cbc f48e c0bd bad0 883c
00000050: 592c 45bd 5a1d ecbe 71f4 fc3d 067b 4abe
00000060: d0ac f4bd 2ab2 793d 6f2d a3bc 31fd 71bd
00000070: 8766 f0bd 3205 45bd ac75 d1bd 1730 35be
00000080: 23ad 53bd 9259 31be c04d 373e e376 6f3c
00000090: 60be 44bd 18d8 393e 0cb3 a8bd 803e e33c
000000a0: f3f0 2dbc 8dca 273d 69c9 a7bd 299e fabd
000000b0: 07dd 5d3d 9454 373d 62d2 813c eaa2 90bc
000000c0: b154 1b3e 54d4 0f3d 6254 a13d eddb 3a3e
000000d0: 4239 dfbd b8d4 533e 8a8d c4bc 8a12 02be
000000e0: 34c5 5e3e d10b 8abd 97ac 1dbe f454 253e
000000f0: 23f3 4a3e e834 eabd 0d28 003e 13ac 46bc
-0.112193525 -0.08201372 0.08669546 -0.018516922 -0.17458849 -0.21542874 0.02954654 0.15311348
-0.005675071 -0.06263319 -0.09384994 -0.18962401 -0.043478824 0.061815813 -0.14692658 0.07112718
0.072088376 -0.019106163 -0.09402266 0.016701091 -0.048137996 -0.46116143 0.12351311 -0.19773492
-0.11947024 0.060960926 -0.019919125 -0.059079353 -0.117383055 -0.048100658 -0.10227522 -0.17694126
-0.051678788 -0.17319325 0.17900753 0.014615747 -0.04803312 0.1814884 -0.082372755 0.027739763
-0.010616529 0.04096465 -0.08192713 -0.12237198 0.054165866 0.044758394 0.015847389 -0.017655808
0.15169026 0.0351146 0.07877423 0.18247958 -0.10899593 0.20686615 -0.023993272 -0.12702385
0.21754915 -0.06740535 -0.15397869 0.16145688 0.19819312 -0.11435872 0.12515278 -0.012125987

fc3.bias f4 [2]
00000000: 457d 49bd 1beb 2bbd
-0.049191732 -0.04197226
