HospitalInformationSystem.API/PyHeart/model.pth (torch, 1612 bytes, 2 tensors)

linear.weight f4 [2, 11]
0.15138096 -0.05724336 0.30066785 -0.03862526 -0.092186406 -0.1206985 0.12067387 -0.052261773
0.09462803 0.1440866 -0.2620428 -0.035624716 0.14490393 -0.27417612 0.21546787 0.24715741
-0.09596017 -0.13973476 -0.21492106 -0.0032614986 0.06725685 -0.222475
00000000: 9c03 1b3e 0378 6abd 23f1 993e 8535 1ebd
00000010: 3acc bcbd c630 f7bd dd23 f73d 7110 56bd
00000020: 57cc c13d 708b 133e 792a 86be 39eb 11bd
00000030: b261 143e d060 8cbe 9ca3 5c3e d516 7d3e
00000040: c486 c4bd a116 0fbe 4414 5cbe debe 55bb
00000050: f6bd 893d 7dd0 63be

linear.bias f4 [2]
0.24279018 0.25736445
00000000: fd9d 783e 46c5 833e
