HospitalInformationSystem.API/PyDiabtes/simple3_nn.onnx (onnx, 13946 bytes, 6 tensors)

fc1.weight f4 [64, 17]
0.015999863 -0.22160691 -0.28511047 -0.8995408 -0.29536903 -0.11695193 -0.13730986 0.030895637
-0.039467074 0.021175776 0.507518 0.056731276 0.07554034 -0.05611256 -0.18231808 0.31706288
0.060491435 0.011264838 -0.33845133 -0.029419476 0.9368208 0.20801729 0.0862444 -0.064046
0.12778915 0.039320845 0.013369373 -0.37684187 -0.17760612 0.11580936 0.1991905 0.2795565
0.060407136 -0.011714513 0.11884664 0.16753484 0.23864463 0.63296163 -0.08616784 -0.08746637
-0.08076935 -0.14870752 -0.08795445 0.04474184 0.055692848 0.019774748 -0.027321393 0.30076528
-0.6937386 -0.232902 -0.10378229 0.051010948 0.13556579 -0.54456496 -0.74989647 0.10959152
-0.15328789 -0.3138241 -0.068001874 -0.07353293 0.1044498 -0.29909787 0.40620264 0.09124653
-0.25250736 0.072115086 -0.12080408 0.1276816 0.02047166 -0.011227519 0.16404551 0.90199196
-0.038163114 0.13559632 -0.07608937 0.07094395 0.09710549 0.08543926 -0.14733416 0.09365194
-0.032450523 0.25287083 -0.5871307 -0.25505123 0.27272055 0.32539114 0.34021133 0.14874734
0.4675584 -0.009584005 -0.065836094 0.19876543 0.102761544 0.10361342 -0.067391366 -0.02631714
-0.17555113 0.12353655 0.3467723 0.0059076753 -0.40865517 -0.026988154 0.218481 -0.29575366
-0.32977498 -0.6129638 -0.24479046 -0.5903636 -0.6780005 0.22867928 0.0036302998 -0.2562425
-0.7839381 0.042587213 0.20707063 -0.080077276 -0.24110411 0.13153824 0.29969797 -0.10928603
-0.030549 0.026453039 0.21275723 0.014819311 -0.64684254 0.25125897 -0.19297397 -0.0050675417
0.18111673 0.09109157 -0.14408736 0.5714511 -0.8224164 -0.083120316 0.3073185 -0.07816443
0.027659375 -0.40215412 0.14770366 0.5838666 0.06915958 -0.477351 0.054617744 0.188605
-0.23184669 -0.1592131 -0.980827 -0.084709994 -0.37409154 -0.33058864 0.18781626 0.24956371
0.24983968 0.29410407 -0.13819824 0.09928817 -0.68551993 -0.12452912 0.22842464 -0.026589355
-0.036980215 0.10924236 0.20815913 -1.0855335 -0.2663203 0.019171136 -0.47698 0.40431148
0.24589604 -0.21528807 -0.039802175 0.10801088 -0.2743156 0.0024696544 -0.079236746 -0.10252109
0.22398998 0.15113014 0.07027305 -0.11159098 0.5850634 -0.4707701 -0.0019571278 -0.056085613
-0.3179379 0.26725438 -0.07072195 -0.016724348 0.078968614 -0.25380492 -1.6069031 0.21663585
0.10391799 0.1465061 0.22703068 -0.080746606 0.12248079 -0.127225 -0.12736355 0.16275111
0.092807285 0.0051416783 0.14992134 0.072349004 -0.058087982 -0.54115564 0.016662432 -0.6263351
0.115286514 0.27374557 -0.5241623 -0.39980245 -0.11778147 0.102920555 0.3972138 -0.45294777
-0.0004944478 0.15419504 0.023399802 0.27199078 0.19191384 0.028196355 -0.017602192 -0.015436881
-1.9056112 -0.071378715 -0.046164945 0.052680466 -0.020506104 -0.0475761 0.038313728 0.065921925
0.049893886 0.019702045 0.1346206 0.1598588 0.08852188 0.078893505 0.109708674 0.09163318
0.07118513 0.77533436 0.09070751 0.21280344 0.1836182 0.019112132 -0.1340352 -0.023810955
0.014027933 -0.14654753 0.16726476 0.44836175 -0.63110226 -0.0003384892 -0.02301211 -0.3439507
00000000: 2512 833c ecec 62be 00fa 91be 4e48 66bf
00000010: 9c3a 97be 7e84 efbd f59a 0cbe d918 fd3c
00000020: 3aa8 21bd d278 ad3c b3ec 013f 0e5f 683d
00000030: e5b4 9a3d 49d6 65bd 97b1 3abe 1156 a23e
00000040: dec5 773d 2890 383c 7e49 adbe 1d01 f1bc
00000050: 7dd3 6f3f 7c02 553e e7a0 b03d 8d2a 83bd
00000060: 29db 023e e50e 213d 370b 5b3c 6bf1 c0be
00000070: 61de 35be 752d ed3d 98f8 4b3e 0822 8f3e
00000080: 796d 773d 3bee 3fbc de65 f33d 418e 2b3e
00000090: 425f 743e c609 223f c478 b0bd 9121 b3bd
000000a0: 676a a5bd c946 18be 7621 b4bd 3843 373d
000000b0: 2f1e 643d a7fe a13c 1dd1 dfbc e8fd 993e
000000c0: da98 31bf dd7d 6ebe cf8b d4bd dbf0 503d
000000d0: c2d1 0a3e 9c68 0bbf 37f9 3fbf 8571 e03d
000000e0: 80f7 1cbe 8dad a0be 9144 8bbd 6f98 96bd
000000f0: c7e9 d53d 5b23 99be cbf9 cf3e 76df ba3d
00000100: a548 81be 13b1 933d 2168 f7bd f7be 023e
00000110: 2fb4 a73c a1f3 37bc 8cfb 273e f2e8 663f
00000120: ed50 1cbd c3d9 0a3e bed4 9bbd 104b 913d
00000130: 3edf c63d c7fa ae3d c4de 16be 97cc bf3d
00000140: d7ea 04bd 4978 813e 334e 16bf 1396 82be
00000150: 07a2 8b3e ab99 a63e 2e30 ae3e 3951 183e
00000160: d163 ef3e 3b06 1dbc 13d5 86bd 2a89 4b3e
00000170: a574 d23d 4633 d43d 7c04 8abd 0b97 d7bc
00000180: adc3 33be bb00 fd3d 248c b13e 2c95 c13b
00000190: 403b d1be 4316 ddbc 7cb9 5f3e 066d 97be
000001a0: 44d8 a8be 32eb 1cbf 5aaa 7abe 1222 17bf
000001b0: 7191 2dbf e72a 6a3e 53ea 6d3b 3832 83be
000001c0: 2bb0 48bf ee6f 2e3d 530a 543e 8eff a3bd
000001d0: ffe3 76be f6b1 063e 0372 993e 5bd1 dfbd
000001e0: e541 fabc 0bb4 d83c 08dd 593e b2cc 723c
000001f0: 7997 25bf 04a5 803e f89a 45be 9f0d a6bb
00000200: aa76 393e 388e ba3d a38b 13be 9f4a 123f
00000210: e289 52bf fc3a aabd da58 9d3e ac14 a0bd
00000220: ea95 e23c 25e7 cdbe a13f 173e 4878 153f
00000230: 8aa3 8d3d 5a67 f4be dbb6 5f3d ab21 413e
00000240: 3869 6dbe c208 23be 7a17 7bbf 6f7c adbd
00000250: ed88 bfbe ea42 a9be e852 403e a18d 7f3e
00000260: f9d5 7f3e cf94 963e d783 0dbe 9957 cb3d
00000270: 3c7e 2fbf 2009 ffbd 26e8 693e ebd1 d9bc
00000280: 9178 17bd 75ba df3d ab27 553e c3f2 8abf
00000290: 225b 88be c90c 9d3c b936 f4be ea01 cf3e
000002a0: 2ccc 7b3e 7a74 5cbe 9b07 23bd cf34 dd3d
000002b0: 1873 8cbe edd9 213b e046 a2bd 94f6 d1bd
000002c0: a15d 653e dcc1 1a3e 51eb 8f3d d089 e4bd
000002d0: b7c6 153f c708 f1be 2843 00bb 07ba 65bd
000002e0: c2c8 a2be 91d5 883e abd6 90bd 8001 89bc
000002f0: 4cba a13d b8f2 81be 00af cdbf cad5 5d3e
00000300: f5d2 d43d b205 163e bb7a 683e 7a5e a5bd
00000310: 35d7 fa3d 4547 02be 976b 02be 3aa8 263e
00000320: bf11 be3d 867b a83b fb84 193e b72b 943d
00000330: aaed 6dbd 2d89 0abf a77f 883c 7f57 20bf
00000340: 561b ec3d 6128 8c3e 802f 06bf e8b2 ccbe
00000350: 6937 f1bd 03c8 d23d 9b5f cb3e c5e8 e7be
00000360: d59d 01ba 4ee5 1d3e f1b0 bf3c 6042 8b3e
00000370: 1085 443e 0bfc e63c 7932 90bc f9ea 7cbc
00000380: 11eb f3bf 012f 92bd 7417 3dbd 79c7 573d
00000390: 6bfc a7bc 28df 42bd dbee 1c3d 1302 873d
000003a0: 885d 4c3d 2f66 a13c fcd9 093e 06b2 233e
000003b0: f64a b53d eb92 a13d f1ae e03d 2daa bb3d
000003c0: 82c9 913d 507c 463f dcc4 b93d 25e9 593e
000003d0: 6906 3c3e 0c91 9c3c 8640 09be 310f c3bc
000003e0: 6ad5 653c 8e10 16be 7447 2b3e ac8f e53e
000003f0: eb8f 21bf 4077 b1b9 e483 bcbc 4e1a b0be

fc1.bias f4 [64]
0.28111303 -0.27049944 -0.32844472 0.037682544 -0.22414021 -0.33581132 0.20911449 0.1452282
-0.010613767 0.14163685 0.30400878 0.20481586 -0.102934174 0.3093397 -0.13519727 -0.1152734
-0.22514863 -0.23271929 -0.26300848 0.03707984 -0.07644227 0.11802417 -0.0022898954 -0.18685883
-0.124018155 -0.14048786 -0.2532969 -0.41406444 0.18119816 0.12325648 0.16198422 -0.33493367
0.30692264 0.3026321 0.01853121 0.26313034 -0.29860896 -0.115216635 -0.31297812 0.19113247
0.050800696 0.05507731 0.13982624 0.3745622 -0.0016570883 -0.18407807 -0.05889128 -0.2997421
-0.30864465 0.07609335 0.038787965 -0.19785793 0.07877281 0.16821155 -0.024322828 0.42753482
-0.011597365 0.048282973 0.34212115 0.21551801 -0.080431305 -0.14724587 0.23068906 0.023929924
00000000: 0cee 8f3e e77e 8abe e829 a8be 0359 1a3d
00000010: 0385 65be 76ef abbe 1c22 563e b4b6 143e
00000020: 5ee5 2dbc 4009 113e 0aa7 9b3e 40bb 513e
00000030: 27cf d2bd c661 9e3e 2771 0abe 7614 ecbd
00000040: 5d8d 66be f74d 6ebe 0ca9 86be 08e1 173d
00000050: c48d 9cbd a8b6 f13d 1212 16bb ec57 3fbe
00000060: 3bfd fdbd 0ddc 0fbe 22b0 81be 4100 d4be
00000070: 038c 393e e56d fc3d 31df 253e 6d7c abbe
00000080: f724 9d3e 98f2 9a3e c4ce 973c 05b9 863e
00000090: 46e3 98be b3f6 ebbd ab3e a0be 3bb8 433e
000000a0: 6414 503d bf98 613d 9c2e 0f3e 9ec6 bf3e
000000b0: a832 d9ba f67e 3cbe fc37 71bd cc77 99be
000000c0: ac06 9ebe d5d6 9b3d 21e0 1e3d 459b 4abe
000000d0: a453 a13d a63f 2c3e ab40 c7bc d8e5 da3e
000000e0: e002 3ebc 5ec4 453d 812a af3e c1b0 5c3e
000000f0: 2bb9 a4bd 9fc7 16be c139 6c3e b008 c43c

fc2.weight f4 [32, 64]
0.14436235 0.030901536 0.13709642 -0.17457035 0.1487012 0.14769402 -0.056253456 -0.27301958
-0.058301143 -0.07443826 -0.098133825 -0.16233733 -0.21892156 -0.32171112 0.08304025 -0.6369015
0.3289586 -0.048313398 -0.2972102 -0.42455235 0.16981755 -0.24468774 0.1343094 0.07123024
-0.31502798 -0.27519092 -0.39378506 0.03931373 -0.038226657 0.064953305 -0.642667 -0.0963213
-0.020383049 0.33305216 -0.17115529 -0.075342976 -0.059812494 0.2043906 0.17721525 -0.2401661
-0.45841202 -0.32424143 0.060454708 -0.072581664 -0.07908035 -0.15128866 -0.059924148 0.0343448
0.075497866 -0.2825991 -0.06049972 0.033504583 0.8869525 -0.40861237 -0.26457748 -0.00956241
0.116174646 0.11707913 -0.53226507 -0.26783744 0.10417765 -0.106982276 -0.084409125 -0.095593475
0.08921318 0.07536683 0.12341726 -0.2828433 0.19014326 0.07105939 0.0019687805 -0.14882848
-0.080894165 -0.12439491 -0.23812507 -0.16345659 -0.2738908 -0.35372496 0.07801843 -0.5912627
0.529165 0.10945788 -0.409836 -0.47190773 0.2934403 -0.20717227 0.17974356 0.14635973
-0.1414773 -0.17650881 -0.45970798 0.09453577 -0.019163439 -0.11253117 -0.66052145 -0.012769573
0.035282828 0.22187889 -0.109053284 -0.14939424 -0.08779321 0.34734574 0.28958997 -0.13563888
-0.29286015 -0.3395217 -0.10029145 -0.04199373 -0.2103032 -0.25156742 -0.08907463 0.25828326
0.1646931 -0.31826216 -0.08712696 -0.052881815 0.98622555 -0.45207942 -0.28356382 -0.069823034
0.15657948 0.2509789 -0.4633924 -0.34416604 0.019407397 0.03299564 -0.2272714 -0.13537906
-0.037439376 -0.02613614 -0.052690174 0.066381864 -0.18813653 -0.14013384 -0.09819971 0.06886413
-0.032041676 0.07966671 0.01185905 0.07977398 0.047371317 -0.13072127 -0.15254587 0.043208122
0.044662893 -0.07021491 -0.009544941 0.029214256 0.100554526 0.04252148 -0.13295749 -0.021607637
0.050169908 -0.10559825 -0.01698223 -0.08366552 -0.20188771 -0.13401678 -0.11701455 -0.056208007
0.022833152 -0.019597182 0.06466372 -0.102509126 -0.071132675 0.04008589 -0.10380123 0.024804184
-0.025155019 -0.046934288 -0.00016980086 0.03476108 -0.06539515 0.067300126 -0.05370094 0.10420677
-0.10851638 -0.09758347 0.011027994 -0.05144763 -0.10052465 0.012877747 0.0018686374 -0.15090021
-0.18423684 0.012681891 -0.09723659 -0.04957474 0.09191969 -0.018618733 0.022717927 0.08897699
0.24061961 -0.29730925 -0.097139284 0.64051694 -0.18546176 -0.26352778 0.49123362 0.5288395
0.027588643 0.1356485 0.07477684 0.23636292 0.10461411 0.47256663 -0.17487359 -0.023220131
-0.5709577 0.12576413 0.48260313 0.2138016 -0.027391609 0.47824228 -0.22761716 -0.21372935
0.19351467 0.42372397 0.6641653 -0.41767967 0.3288753 0.3033275 0.3335935 -0.17205247
0.10568785 0.14576906 0.16574714 0.2204277 0.14049383 0.08781053 -0.24908696 0.47067395
0.023900226 0.60762656 0.50460863 0.46301454 0.32758218 -0.09861912 0.39997354 -0.014662279
-0.28072733 0.27078834 0.16949417 0.10526116 -1.0667338 0.058905408 0.30921194 0.19844356
-0.31523263 -0.10936151 0.20539297 0.25626853 0.27276003 -0.12392555 0.3000037 0.32610968
00000000: b9d3 133e 3825 fd3c 0163 0c3e 92c2 32be
00000010: 2145 183e 1a3d 173e 066a 66bd 39c9 8bbe
00000020: 2ecd 6ebd 1673 98bd 63fa c8bd c23b 26be
00000030: f92c 60be 52b7 a4be 0211 aa3d fa0b 23bf
00000040: 436d a83e 45e4 45bd ef2b 98be ed5e d9be
00000050: a7e4 2d3e 6c8f 7abe 6788 093e 29e1 913d
00000060: 594b a1be d3e5 8cbe 329e c9be 6f07 213d
00000070: 8e93 1cbd 3d06 853d d385 24bf 1a44 c5bd
00000080: 5afa a6bc d085 aa3e 5543 2fbe 6b4d 9abd
00000090: f2fd 74bd c54b 513e ea77 353e 1aee 75be
000000a0: fbb4 eabe f902 a6be 5b9f 773d b2a5 94bd
000000b0: e1f4 a1bd 6aeb 1abe 0673 75bd 22ad 0c3d
000000c0: a09e 9a3d d4b0 90be 8ece 77bd 1a3c 093d
000000d0: 520f 633f a435 d1be b376 87be a8ab 1cbc
000000e0: f9ec ed3d 2fc7 ef3d 8642 08bf fd21 89be
000000f0: 175b d53d 8619 dbbd b1de acbd 83c6 c3bd
00000100: 66b5 b63d ed59 9a3d 30c2 fc3d d6d0 90be
00000110: eab4 423e 9687 913d a806 013b 7e66 18be
00000120: d7ab a5bd c2c2 febd 0fd7 73be 2a61 27be
00000130: 6a3b 8cbe 701b b5be 20c8 9f3d fe5c 17bf
00000140: 5c77 073f 742b e03d 06d6 d1be e49d f1be
00000150: cf3d 963e f824 54be b20e 383e 53df 153e
00000160: 6ddf 10be babe 34be d85e ebbe f89b c13d
00000170: a5fc 9cbc be76 e6bd ef17 29bf 7937 51bc
00000180: ba84 103d 3834 633e 5457 dfbd cefa 18be
00000190: edcc b3bd 4dd7 b13e 2345 943e ebe4 0abe
000001a0: c4f1 95be cad5 adbe 9b65 cdbd 9e01 2cbd
000001b0: b959 57be 72cd 80be c26c b6bd b43d 843e
000001c0: 4fa5 283e 42f3 a2be 9f6f b2bd 9a9a 58bd
000001d0: 4779 7c3f f476 e7be 472f 91be 61ff 8ebd
000001e0: 5f56 203e 4e80 803e c541 edbe 8836 b0be
000001f0: 43fc 9e3c 7026 073d d5b9 68be cfa0 0abe
00000200: 085a 19bd 751b d6bc a7d1 57bd 37f3 873d
00000210: dda6 40be 3f7f 0fbe ee1c c9bd a308 8d3d
00000220: 223e 03bd 4d28 a33d 764c 423c 8a60 a33d
00000230: 6d08 423d ccdb 05be fc34 1cbe 00fb 303d
00000240: 70f0 363d d6cc 8fbd 6262 1cbc bc52 ef3c
00000250: 88ef cd3d 012b 2e3d 0226 08be 8002 b1bc
00000260: f67e 4d3d e543 d8bd 511e 8bbc d458 abbd
00000270: a7bb 4ebe b23b 09be 53a5 efbd 5e3a 66bd
00000280: 970c bb3c 458a a0bc 6a6e 843d 4ef0 d1bd
00000290: 02ae 91bd 1a31 243d bd95 d4bd 2532 cb3c
000002a0: e611 cebc 2b3e 40bd 920c 32b9 a261 0e3d
000002b0: e4ed 85bd a6d4 893d 84f5 5bbd 5c6a d53d
000002c0: d63d debd d8d9 c7bd c2ae 343c c0ba 52bd
000002d0: dedf cdbd 30fd 523c 11ed f43a 9685 1abe
000002e0: 95a8 3cbe b5c7 4f3c fa23 c7bd e20e 4bbd
000002f0: 6440 bc3d 5086 98bc f21a ba3c 9139 b63d
00000300: fd64 763e eb38 98be f6f0 c6bd ebf8 233f
00000310: b0e9 3dbe 1ded 86be f982 fb3e 0762 073f
00000320: 9401 e23c 71e7 0a3e 9a24 993d 1f09 723e
00000330: ec3f d63d 41f4 f13e 1012 33be 2538 bebc
00000340: 492a 12bf 50c8 003e c217 f73e ceee 5a3e
00000350: 5e64 e0bc 2cdc f43e 7914 69be dedb 5abe
00000360: b628 463e 59f2 d83e bd06 2a3f 1cda d5be
00000370: 5862 a83e be4d 9b3e c4cc aa3e 862e 30be
00000380: df72 d83d 7c44 153e 9eb9 293e cdb7 613e
00000390: 9ddd 0f3e 02d6 b33d a710 7fbe 2dfc f03e
000003a0: 68ca c33c 6a8d 1b3f 082e 013f 3e10 ed3e
000003b0: dab8 a73e d2f8 c9bd 55c9 cc3e 0e3a 70bc
000003c0: 7ebb 8fbe c5a4 8a3e e18f 2d3e 2a93 d73d
000003d0: bc8a 88bf cc46 713d 0751 9e3e ca34 4b3e
000003e0: 2c66 a1be edf8 dfbd 8952 523e a135 833e
000003f0: 34a7 8b3e aecc fdbd 169a 993e d9f7 a63e

fc2.bias f4 [32]
-0.09711786 -0.037699666 -0.075920545 0.21550134 0.115304254 -0.01999824 0.06942293 0.0653455
-0.14432664 -0.1225107 -0.017434757 0.34121457 0.12205922 0.052239098 -0.038814552 -0.021842083
-0.053146612 0.032261465 -0.09252338 0.089317866 0.24175897 0.064555414 0.24571331 0.2758912
0.13475 -0.057865717 0.09370103 0.25575778 0.02310044 -0.01986184 -0.13511823 -0.006291124
00000000: bbe5 c6bd f76a 1abd 3b7c 9bbd 62ac 5c3e
00000010: a324 ec3d 59d3 a3bc 9c2d 8e3d ddd3 853d
00000020: 5dca 13be e4e6 fabd 56d3 8ebc adb3 ae3e
00000030: 2ffa f93d aaf8 553d 02fc 1ebd 2bee b2bc
00000040: 43b0 59bd 9924 043d e67c bdbd 49ec b63d
00000050: aa8f 773e a135 843d 459c 7b3e 9d41 8d3e
00000060: e7fb 093e 9a04 6dbd 53e6 bf3d aff2 823e
00000070: 223d bd3c 4cb5 a2bc 6f5c 0abe c625 cebb

fc3.weight f4 [2, 32]
-0.18009797 -0.24286976 0.028157623 2.172474 0.29451537 -0.10893711 -0.015764337 -0.0518969
0.05824192 0.3907842 -0.2058699 2.16359 0.30228367 -0.119639404 -0.06267893 -0.090849966
0.060840964 0.3939925 -0.124441646 -0.21452807 0.3968252 0.29505166 0.3410529 0.3730251
0.1643167 0.82758933 -0.2149941 0.122171424 -0.30469272 0.40498492 -0.052733205 -0.11568043
-0.017354969 0.2626816 0.02575543 -2.1878407 0.04886141 0.3629476 0.0025903357 0.1998106
0.017827148 -0.12629217 0.13953447 -2.2051828 -0.013268293 0.36956137 0.3660155 0.13983071
0.12788737 -0.43524587 -0.07998227 0.1492383 -0.36157545 -0.07725896 -0.35730293 -0.16435368
-0.35472646 -0.60696733 0.21381791 -0.30502298 0.14448774 -0.56550574 0.14444865 0.26815048
00000000: 9a6b 38be dab2 78be d1aa e63c d009 0b40
00000010: b8ca 963e 6b1a dfbd 3624 81bc d891 54bd
00000020: 148f 6e3d de14 c83e 8fcf 52be 4278 0a40
00000030: edc4 9a3e 8105 f5bd d05d 80bd 8c0f babd
00000040: 6034 793d 63b9 c93e 43db febd 3fad 5bbe
00000050: ac2c cb3e 0311 973e 7c9e ae3e 25fd be3e
00000060: a342 283e e5dc 533f 6a27 5cbe 0335 fa3d
00000070: af00 9cbe 2f5a cf3e c6fe 57bd dce9 ecbd
00000080: 022c 8ebc 347e 863e 0dfd d23c 9505 0cc0
00000090: e722 483d 45d4 b93e 9fc2 293b 269b 4c3e
000000a0: 3d0a 923c bc52 01be 20e2 0e3e b721 0dc0
000000b0: 4163 59bc 2637 bd3e 6266 bb3e c82f 0f3e
000000c0: e8f4 023e 8cd8 debe bfcd a3bd edd1 183e
000000d0: 6b20 b9be f239 9ebd 69f0 b6be 554c 28be
000000e0: b59e b5be 3662 1bbf 15f3 5a3e f92b 9cbe
000000f0: 98f4 133e fcc4 10bf 59ea 133e 054b 893e

fc3.bias f4 [2]
0.20887007 0.03220821
00000000: 09e2 553e c2ec 033d
